forecast/artifacts/model.pt (torch, 7485 bytes, 5 tensors)

gru.weight_ih_l0 f4 [48, 7]
000000 02 b0 75 3e 4c 7a 39 3f ea 35 27 be 21 f2 76 be
       0.23992923 0.72452235 -0.1632916 -0.24115802
000010 c2 e5 06 bf 85 6f 23 3e 38 7d 15 be 49 dc ef 3e
       -0.5269433 0.1596051 -0.14598548 0.46847752
000020 d1 7c c2 3e 28 59 1b bf 0e 23 fc bd 08 c3 7e 3d
       0.37985852 -0.60682917 -0.12311374 0.062197715
000030 5e 29 37 3e c1 77 0e 3f 62 e7 a0 3e 6d 76 58 be
       0.17886874 0.5565148 0.3142653 -0.21138926
000040 8a 4c 2d 3e 3d 94 86 be 24 32 aa bb b8 2e 06 3e
       0.16923729 -0.26284972 -0.0051939655 0.1310376
000050 be e4 dc bd 98 03 dc be d5 28 ab be 1e 50 cf 3d
       -0.107858166 -0.42971492 -0.3342959 0.10122703
000060 c7 43 5f 3d ae 36 c1 3e 1a ef 96 bd 73 8b ea 3e
       0.054507997 0.3773703 -0.07369824 0.45809516
000070 b7 99 91 3e 9c 2f e2 ba ce 1b 5b 3e 24 73 bb 3e
       0.28437588 -0.001725662 0.21397325 0.36611283
000080 07 9e 0c 3f 48 88 f3 3d ab bf 47 3e 0c e3 d3 be
       0.5492863 0.11891228 0.1950671 -0.4138416
000090 0c db a6 3e b3 cb ae bd 7e 66 a1 3c 6d d2 2b 3f
       0.32588995 -0.08534946 0.019702192 0.6711796
0000a0 2e a0 41 be 58 da b0 be fb b1 8a 3e 17 7f e1 3e
       -0.1890876 -0.34541583 0.27088913 0.44042274
0000b0 14 43 fe 3d 26 8d 6e 3e d7 17 98 3c 53 70 80 bd
       0.12415138 0.23296031 0.018566055 -0.06271424
0000c0 7c f8 df 3d b5 cc 6e 3e db 5c 38 be fd d0 d3 be
       0.109360665 0.23320277 -0.18004172 -0.41370383
0000d0 a2 03 13 3f 83 ce c7 3f 72 f6 92 3e 7a 8a 91 be
       0.5742742 1.5609897 0.28703648 -0.28425962
0000e0 f7 81 bd bd cc b1 d3 3e 14 e3 10 3f 31 68 9e be
       -0.092533045 0.41346586 0.56596494 -0.30938867
0000f0 d3 66 21 bf 38 3d 13 bf 66 48 b8 3e b7 f3 d7 be
       -0.6304752 -0.5751529 0.35992736 -0.42178127
000100 55 c6 f3 be 75 03 d6 3e 42 92 85 be 58 fe ad bd
       -0.47612253 0.41799513 -0.26088148 -0.08495778
000110 d3 d3 0c 3f aa 30 00 3f 34 83 10 3d 0c 51 6e be
       0.5501072 0.50074255 0.035281375 -0.23273104
000120 bf 94 af be 5d e0 3f 3e 2b fd b2 bc 07 67 81 be
       -0.34293172 0.18737932 -0.021849236 -0.25273916
000130 9a c8 93 bd 13 a4 3b be 69 c9 b6 3c 62 23 08 be
       -0.07215996 -0.18324308 0.022312837 -0.13294747
000140 29 db 5f 3e 5f d3 8b 3e 90 f2 4d 3e 38 8a eb be
       0.21860947 0.273097 0.20112062 -0.4600389
000150 bf 5f ec 3e 20 fc 51 3e 62 bf 03 bf 0f 53 67 3d
       0.46166798 0.20506334 -0.514639 0.056475695
000160 a2 06 e0 3f 06 b3 fd bc 2a 73 06 bf c5 92 60 3e
       1.7502024 -0.030969154 -0.52519476 0.21930988
000170 be b3 29 3f 38 bc a4 3e ba 94 8e bd 98 21 d7 be
       0.6628989 0.3217485 -0.06961961 -0.42017817
000180 fe 8d f3 3c d3 68 5b bd 78 f1 39 3e 8c 60 f0 be
       0.029730793 -0.053566765 0.1815852 -0.4694866
000190 9d 3b 21 3e f8 ab 6f 3e e5 cf 2a 3e 04 9a ce 3e
       0.15745397 0.23405445 0.16680868 0.4035188
0001a0 e8 74 2b 3e 86 9f 00 be 63 ed 53 be 18 99 c3 be
       0.16743815 -0.12560853 -0.20696025 -0.3820274
0001b0 bd 26 4e 3b 1e d3 a7 be 61 9f 37 be 61 84 d9 be
       0.0031456195 -0.32778257 -0.17931892 -0.4248381
0001c0 55 e7 43 3e fe ce 24 3f 41 f4 0e bc ca 84 e3 be
       0.19131215 0.64378345 -0.008725227 -0.44437248
0001d0 ab 9d 99 3e 00 9f a2 3e 32 85 07 be 68 3e b6 be
       0.30003104 0.31761932 -0.13234404 -0.35594487
0001e0 2a 73 5d 3f 38 a3 08 bd 74 68 a6 bb 64 b9 e2 3d
       0.8650385 -0.033358783 -0.0050783698 0.11070517
0001f0 24 93 fe bd 4e fb aa 3e c8 d7 32 bf e4 ca df 3d
       -0.124304086 0.33394855 -0.69860506 0.1092737
000200 e2 6c c2 3e 61 15 89 3e f4 17 4e 3d e5 0c 8a bd
       0.37973696 0.26774123 0.050315812 -0.06740741
000210 0c 12 a9 3e 43 54 a5 3e 96 cf 67 3e 13 8e e4 3d
       0.3302158 0.3229085 0.22637782 0.11159911
000220 9a b7 77 3e ae ee 90 3e 4b ad 8a be 0f 55 0a 3d
       0.24191132 0.28307098 -0.27085337 0.033772524
000230 08 f4 85 be 2a dc 45 bd 9e c0 a2 3e be c2 af be
       -0.26162744 -0.048305668 0.3178758 -0.34328264
000240 6a b3 3d 3f 0c aa 83 3e bc 5e 24 bf 76 f3 8e 3e
       0.7410189 0.25715673 -0.64207053 0.2792012
000250 03 85 05 be da f1 d6 be 83 f8 09 3f 38 24 04 be
       -0.13039021 -0.41981393 0.53894824 -0.12904441
000260 6a 2c d3 bd 6c 82 70 3e 0c 77 5a bf c6 64 f9 3e
       -0.10311206 0.23487252 -0.853379 0.48709697
000270 ab 01 1d be bd 2e 2c be 60 d9 9e be af 73 4b 3e
       -0.15332668 -0.16814704 -0.3102522 0.19868349
000280 6d fe d1 3d 03 13 50 3f 18 9e 35 3f 28 49 a6 bd
       0.10253606 0.8127901 0.70944357 -0.08119422
000290 99 16 8c bd e9 c9 f5 be ca 47 04 be 25 28 78 3d
       -0.06840248 -0.48005608 -0.1291801 0.06058516
0002a0 c9 0b 7a 3d b3 8b 94 3f b2 20 de be d8 f7 18 3f
       0.061046395 1.1605133 -0.4338432 0.5975318
0002b0 41 18 a3 be 0d b1 9c bd a6 e5 91 3e f1 52 d4 3e
       -0.31854442 -0.07650957 0.2849552 0.4146953
0002c0 68 0c 56 be d1 6d 92 be 3e c2 6f 3e 02 81 09 be
       -0.2090317 -0.28599408 0.23413941 -0.13428119
0002d0 1a 8e b7 bc a1 6f 27 3d 11 68 75 3e 48 00 34 3f
       -0.022406626 0.040877942 0.2396548 0.7031293
0002e0 5a be a9 be 1f 68 ff 3e 3f 8a b4 3e e3 74 9a 3e
       -0.3315304 0.49884126 0.35261723 0.30167302
0002f0 0f 6c 36 3e 35 42 7e be b6 13 94 3e 1b 87 ae 3d
       0.17814659 -0.24829943 0.28921288 0.08521863
000300 db ba 21 3f 5d b4 88 3e 2d 03 8e 3e 7b 39 07 3e
       0.63175744 0.26700106 0.27736798 0.13205521
000310 fe 3e d8 3e 52 75 10 3f ce 82 18 bf d4 1e fe be
       0.4223556 0.56429017 -0.5957459 -0.49632895
000320 4f 51 ec be 50 35 6a 3f 61 7f 48 3f d8 ec 1b 3f
       -0.46155784 0.914876 0.78319365 0.6090827
000330 47 85 20 3f ee d9 43 bd 92 ac 29 be ef e7 a4 3e
       0.62703365 -0.047815256 -0.16569737 0.322082
000340 b1 f8 b0 be 4f 2e f7 bd 3c bf 4a 3f b7 0c b1 bd
       -0.34564736 -0.120693795 0.7919805 -0.08645003
000350 48 ca 7d 3e 8e e4 65 bf db 26 76 be e0 0e ba bd
       0.24784195 -0.8980187 -0.2403826 -0.090848684
000360 b8 60 06 3e 7f 3a 3a 3e d4 e8 90 3e 9d 8e e0 be
       0.13122833 0.18186377 0.28302634 -0.43858805
000370 ec cf b1 ba 37 b5 3c 3c c8 42 47 be 47 3a 11 bf
       -0.0013565994 0.011517814 -0.19459069 -0.5672955
000380 c6 04 04 3e af 3b c5 bc 34 e8 a9 3d 9d b5 61 be
       0.12892446 -0.02407631 0.08296242 -0.22041936
000390 b8 ed 55 bf 53 91 45 be 0d 7e b2 bd 0a b7 01 bf
       -0.83565855 -0.19293718 -0.087154485 -0.5066992
0003a0 dd 41 b6 3e 62 6b c8 bd 47 38 d2 3c 8e 0e 24 3d
       0.35597125 -0.09786107 0.0256616 0.040052943
0003b0 7f 5f d6 3d 97 6d 2b bc f4 53 a9 be 5f 75 1b 3e
       0.10467433 -0.01046314 -0.33071864 0.15181492
0003c0 4d 08 89 be 3c 18 31 be f3 5e 8e 3d 9c 7f 7f bd
       -0.26764145 -0.17294401 0.06951704 -0.062377557
0003d0 64 01 8a 3d 4f c3 5e 3c 96 1f 64 bd fc fb c2 be
       0.067385465 0.01359637 -0.055694185 -0.38082874
0003e0 35 6a 30 3d 3c af cc bd be 42 2f be 34 29 e1 3d
       0.043070037 -0.09994361 -0.17115304 0.10994187
0003f0 fc 3f 12 be d6 f1 53 be fa fa c0 bd ed 34 80 bd
       -0.1428222 -0.20697722 -0.0942287 -0.06260095

gru.weight_hh_l0 f4 [48, 16]
000000 79 7f 09 bd c2 28 12 be ea 3b 36 bf 63 48 88 be
       -0.033568833 -0.1427336 -0.7118517 -0.26617727
000010 9f 10 91 be de 44 cc 3e 12 9d 6e 3d a9 c4 fa 3e
       -0.28332993 0.39896291 0.058255263 0.48978165
000020 9d 35 09 3f 98 5a 3e 3d 67 75 13 be e1 8e 30 be
       0.5359743 0.046473116 -0.14400254 -0.17242004
000030 b7 c9 ea 3d f5 15 07 be 16 9c 95 3e 84 fd d6 3c
       0.11464255 -0.1319197 0.29220647 0.026243933
000040 11 89 31 3e e6 93 c8 3d e6 ae b7 3c ff 43 83 3b
       0.17337443 0.097938344 0.022422265 0.0040059085
000050 69 5d 24 bf 23 8c 33 3f 13 9b 19 bd 8c c6 1e 3e
       -0.6420503 0.70135707 -0.037501406 0.15505427
000060 24 4d d2 3e d7 c8 2e be 53 76 d5 3d bd b1 cf bd
       0.4107448 -0.17068802 0.10422959 -0.10141323
000070 6f fb 1d be e5 01 7e 3e b0 40 97 be e4 b7 9d 3e
       -0.15427946 0.2480541 -0.2954154 0.3080436
000080 7c 68 1d 3e 84 2d fc 3c d4 38 59 be 4e 3f ed bd
       0.15371889 0.030783422 -0.21213084 -0.1158434
000090 84 d1 73 3e 73 3b d0 3e 66 b2 7c be 6f b4 a1 3c
       0.23810393 0.40670356 -0.24677429 0.019739358
0000a0 8f da 33 3f d2 8a 07 3e 48 81 80 be 2c a1 ee bd
       0.7025537 0.1323655 -0.25098634 -0.11651835
0000b0 21 2e 43 bb 74 aa e3 bd 75 cd 90 be 08 4d f7 be
       -0.0029782134 -0.11116496 -0.2828175 -0.48300958
0000c0 d7 ef bc be 57 e3 87 3e ab 7f a1 be c8 22 41 3d
       -0.36901733 0.26540634 -0.31542715 0.04715231
0000d0 5a b7 5b 3e 34 8a 72 3e e6 e5 93 be 07 e9 27 be
       0.21456662 0.23685533 -0.28886336 -0.16397487
0000e0 d0 a1 74 bf ae a7 9c 3d de 48 80 3e 4b b3 69 be
       -0.95559406 0.0764917 0.25055593 -0.22822301
0000f0 46 a6 35 be f9 ca 30 3e 53 6f b3 bd f9 3b 25 3e
       -0.1773921 0.17264928 -0.08761468 0.16136159
000100 51 0f cb 3c 5a 41 86 bc 54 c2 d9 be 3a 72 ae bb
       0.024787577 -0.016388584 -0.42531073 -0.0053236755
000110 e8 59 a0 be af 7e 64 be 30 b4 63 be f6 ed a3 3c
       -0.31318593 -0.22313951 -0.22236705 0.02001093
000120 cc e9 cb 3e c8 2d e2 3e 57 5f 48 be 44 75 5a 3e
       0.3982681 0.44175553 -0.1956762 0.21333796
000130 c6 f8 60 3d fc 49 89 3e 81 d7 66 be f5 6d 22 be
       0.05492475 0.26814258 -0.22543146 -0.15862258
000140 41 c3 93 be fa 42 4a be 56 a9 d7 bd a0 b8 39 3e
       -0.28859904 -0.19752112 -0.10530345 0.18136835
000150 1a 8f 8d bb af 15 27 bd 62 0c 0c be 8c 48 35 be
       -0.0043200376 -0.040792163 -0.13676599 -0.17703456
000160 aa c1 05 3e 2a 49 46 bd c2 bd 06 bf f9 a7 08 3f
       0.13062158 -0.04840962 -0.526333 0.53381306
000170 11 c8 60 3e f4 db 7a bd 72 bb fb 3e 82 9c 4d bf
       0.2195132 -0.06124492 0.49166447 -0.80316937
000180 c4 07 5d 3f 40 9c e3 be 58 c5 7f bf 94 1a 6a 3e
       0.86339974 -0.44455147 -0.999105 0.22861701
000190 28 17 dc be e4 02 1b bf ed c2 92 be 18 10 69 3f
       -0.42986417 -0.60551286 -0.28664342 0.9104018
0001a0 bf 6d 0b 3f 1c 91 0f 3f 85 62 1c 3e 0b a4 91 be
       0.54464334 0.56080794 0.15271957 -0.28445467
0001b0 b3 a9 c2 be 21 66 21 bf 61 73 2f bf 17 45 db 3e
       -0.38020095 -0.6304646 -0.6853543 0.4282615
0001c0 2e 65 bf be 09 e9 f0 bd 07 de 83 bd f1 9c f3 be
       -0.3738188 -0.11763198 -0.06438833 -0.47580674
0001d0 42 eb 48 bf 9c fd 00 bc b7 a6 8f be d0 54 40 ba
       -0.78483975 -0.007872965 -0.2805688 -0.0007336857
0001e0 3c fd 25 be 2c 2d d9 3e 35 1c 47 bd 13 cc 29 3e
       -0.16209882 0.42417276 -0.048610885 0.16581754
0001f0 05 f7 16 3e ba b8 d9 3e 01 5a 95 bd 64 6e 77 be
       0.14742668 0.42523748 -0.072925575 -0.24163204
000200 8c 30 b7 bd a3 65 cc 3d dc 44 6e be a4 0a d0 3d
       -0.089448065 0.09980323 -0.23268455 0.101582795
000210 e9 2b cc 3e aa f9 53 3e 0f 6d 6a bd 6a 16 dd 3e
       0.3987725 0.20700708 -0.057232913 0.43181163
000220 a4 f4 1d 3d ae 93 0c be a4 ed b7 3e 4e c4 68 3d
       0.038563386 -0.1372821 0.35923493 0.056827836
000230 c5 40 17 bf 2e 83 c5 ba 04 51 55 bf 99 80 2f 3f
       -0.59083205 -0.0015069002 -0.83326745 0.685556
000240 62 07 88 3e c6 04 db be e8 07 26 bf ae 41 1f 3c
       0.26568133 -0.4277708 -0.64855814 0.009720249
000250 00 b6 98 3c b3 9d d9 bd 23 38 4f 3d b0 fd 80 3f
       0.018641472 -0.10625782 0.050590646 1.0077419
000260 f8 dc 3d be 04 ef 7c 3e 41 88 04 bf e4 83 0c 3e
       -0.18541324 0.24700552 -0.51770407 0.13722187
000270 71 72 1e bf 1f 70 71 be 78 cc e1 3e e7 2a ac 3e
       -0.61893374 -0.23577927 0.4410131 0.33626482
000280 c4 c8 d7 be ea 10 04 3f 84 e1 95 3e 41 11 86 be
       -0.4214536 0.5158831 0.29273617 -0.2618504
000290 34 fa 2c bd 37 cd 37 3f c4 82 f8 3c 23 6d d6 be
       -0.0422308 0.7179751 0.030335791 -0.4188014
0002a0 50 cf e1 3e 19 89 59 be e5 6b f0 bd e1 25 5e 3d
       0.4410348 -0.21243705 -0.11739329 0.054235343
0002b0 83 59 fb 3e 33 51 9d 3f 98 96 b3 3e ee 86 c2 be
       0.4909173 1.2290405 0.3507583 -0.37993568
0002c0 c3 1f 06 3e 18 4b f0 bd eb 52 fc be 94 f0 89 be
       0.13098054 -0.11733073 -0.4928201 -0.2694136
0002d0 74 fc 84 be 9b d3 b1 be ac 05 53 be 3e fc 3c be
       -0.25973856 -0.34731755 -0.20607632 -0.18455598
0002e0 36 fc f7 3d 42 45 f1 3e c2 b4 dd be 11 4f 8d bd
       0.12108652 0.47123152 -0.4330197 -0.06899846
0002f0 d8 7d 13 3d a8 e4 e7 bd b8 b1 0d bb 2e bf d4 be
       0.036008686 -0.113229096 -0.0021620821 -0.4155211
000300 59 f2 9e be 76 c4 97 3e 94 20 1a bd 18 83 79 3d
       -0.31044272 0.29642075 -0.037628725 0.060916036
000310 be 36 bc be ab 5d d2 be 67 fc f6 bd 35 c9 66 be
       -0.36760515 -0.41087088 -0.12059861 -0.22537692
000320 6c 9e 78 bd 24 65 1b 3e 24 22 fc be 2a 50 b3 bc
       -0.060697958 0.15175301 -0.49244797 -0.021888811
000330 4a 75 86 3e 8b cb 88 3e 19 70 e1 3e 60 d0 87 bd
       0.2626136 0.2671779 0.44030836 -0.06631541
000340 e1 43 ba 3d fc 8d 58 3e 1b 7b 05 bf b6 98 32 be
       0.09094978 0.21147913 -0.5214097 -0.17441067
000350 e2 95 c7 be 16 16 82 3b 5d e8 68 3e c5 4f 98 3e
       -0.3898154 0.003969918 0.2274489 0.2974836
000360 d4 2a 5e 3f 63 98 02 3e 03 2b a0 3e 2d 4b 27 be
       0.867841 0.12753443 0.31282815 -0.16337271
000370 6a 56 7f be d8 f1 83 be 4c 93 1a 3d d9 0a a7 be
       -0.24935308 -0.2577045 0.03773813 -0.32625464
000380 62 af 03 3e ec c7 8d be ff ae 6c bf a0 32 01 bf
       0.12859872 -0.2769159 -0.9245452 -0.5046787
000390 01 15 32 be 70 5a 33 3d d1 d4 51 3e dd 1e 36 3f
       -0.17390825 0.04378742 0.2049134 0.71140844
0003a0 20 26 84 3f b8 28 9a 3e 72 67 ab bd cd ee 57 bf
       1.0324135 0.3010919 -0.0836934 -0.84348756
0003b0 bb 34 13 be f4 3d e3 be 82 71 0a bd 7d 09 79 3e
       -0.14375584 -0.44383204 -0.033799656 0.24320026
0003c0 60 19 1f bd 5a 07 e6 3e 18 4e 08 3e 74 a0 92 be
       -0.03884256 0.44927484 0.1331104 -0.2863804
0003d0 11 99 87 3e c0 7d 3c 3f 59 60 a6 bd 5c b5 a0 be
       0.26483968 0.7362938 -0.081238456 -0.31388366
0003e0 83 b8 a3 3e 08 35 36 3f f3 71 ef be 9f 91 94 3d
       0.3197671 0.7117467 -0.46766624 0.072543375
0003f0 29 c3 99 3d da 57 eb 3e d0 6c e8 bd 98 0c 8a 3e
       0.07507927 0.45965463 -0.11348879 0.26962733

gru.bias_ih_l0 f4 [48]
000000 9e ca e2 bd 55 d0 fb 3c 8e 75 eb 3d 7e d6 54 3a
       -0.110738024 0.030738989 0.11497031 0.000811912
000010 d8 ea 82 3e d9 e0 f4 3e 33 53 8b 3e 95 f0 6b 3d
       0.25569797 0.47827795 0.27211913 0.057602484
000020 fa f1 6c 3d 8e 03 ed 3e 0a 4a b4 bd cd 67 13 3f
       0.057847954 0.46291775 -0.08803184 0.5758026
000030 ea e0 fe 3e 7a b8 5d 3a 2a 27 80 bd 95 41 82 3e
       0.4978097 0.000845797 -0.0625747 0.2544066
000040 72 df 99 3e c1 ba ef be 23 95 b4 bc c6 f0 78 3e
       0.30053288 -0.4682217 -0.02204377 0.24310598
000050 fa 0c 72 3f 09 25 1a 3f de c6 bc be 1a 76 f0 be
       0.9455105 0.6021276 -0.36870474 -0.46965104
000060 f3 bd 3f 3e 7c 65 3c be fc 6f 71 bf 82 9a a3 be
       0.18724804 -0.18398088 -0.943115 -0.31953818
000070 af 1a 4f bf 5e c0 4a bf 24 5a 63 bf 71 54 23 bf
       -0.8090009 -0.7919978 -0.8880942 -0.6380072
000080 36 a1 a8 bd d3 1e 18 be 92 b3 e2 3c 34 da 74 3e
       -0.082338735 -0.14855509 0.027673516 0.23911363
000090 e1 52 ce 3d cd 7b d9 bd 5d 69 9f be dc a4 c3 3c
       0.10074402 -0.10619316 -0.31135073 0.023882322
0000a0 ea 26 2d 3e a9 5c a6 3e f7 2a 31 bd 89 93 75 3e
       0.16909376 0.3249257 -0.043253865 0.23982061
0000b0 8e 82 03 3d 4e a4 6c 3e 8b 59 88 bb fd c1 dd bd
       0.03210693 0.23109552 -0.004161065 -0.10828016

gru.bias_hh_l0 f4 [48]
000000 d4 9b 39 be 67 fe e7 bd eb be 94 3d bf 8f 81 3e
       -0.1812585 -0.1132782 0.07262977 0.25304982
000010 02 bb 55 3d 18 9e 0c 3f df 04 b4 3e 21 b5 b3 3e
       0.052180298 0.5492873 0.35159966 0.35099128
000020 e3 17 4f be a1 e5 01 3f df e7 ee 3d 5d d5 f2 3e
       -0.20223956 0.5074101 0.1166532 0.47428408
000030 d4 58 93 3e 3a 15 9d 3d ec 7c 5f 3d 92 37 96 3e
       0.28778708 0.07670064 0.054562494 0.29339272
000040 90 83 9f 3d a0 4b fc be 87 a0 5b be 56 b9 48 3e
       0.077887654 -0.49276447 -0.21447955 0.1960195
000050 20 0c 1c 3f 24 1d 07 3f 69 90 99 be 72 90 c4 be
       0.60956 0.5277884 -0.2999299 -0.38391453
000060 28 58 a5 3d 47 81 99 bd 64 46 3b bf 74 94 1b bf
       0.08073455 -0.07495361 -0.7315428 -0.60773396
000070 00 99 3c bf 56 75 34 bf cb 4a 6c bf a5 46 5e bf
       -0.7367096 -0.7049154 -0.92301625 -0.86826545
000080 45 ea 43 3e 6f 6b 86 be a1 86 8f be cf 41 ce 3d
       0.19132335 -0.2625384 -0.280324 0.10071146
000090 13 91 36 be 9e 37 58 3e 18 96 23 be 31 28 80 3e
       -0.17828779 0.21114966 -0.15975225 0.25030664
0000a0 8a 73 39 be 54 e4 43 bd 39 3e b8 be 24 8f b2 3d
       -0.18110481 -0.047825173 -0.35984972 0.08718708
0000b0 15 9d 4d bd d1 b1 4e be eb c9 3e be ed a2 95 3d
       -0.050198633 -0.20185019 -0.18631713 0.07306466

fc.weight f4 [1, 16]
000000 4b 4c 8f 3e a5 f0 a6 be 70 f0 72 be e4 ca 28 3e
       0.27987894 -0.32605472 -0.23724532 0.16483647
000010 9f 35 c4 3d e6 b5 07 be ca 9a 88 3e c3 3c 85 3e
       0.0958054 -0.13252982 0.26680595 0.2602292
000020 4c f4 2f 3e ee 17 ad 3e 54 87 0a bf b3 df de be
       0.17183036 0.3380732 -0.54112744 -0.43530044
000030 90 2b d0 be 94 2c ad be 9e 21 bf be 7e 89 15 3f
       -0.40658236 -0.33823073 -0.37330335 0.5841292
